Model: "sequential_4"
_________________________________________________________________
 Layer (type)                Output Shape              Param #   
=================================================================
 conv2d_13 (Conv2D)          (None, 126, 126, 32)      896       
                                                                 
 max_pooling2d_13 (MaxPoolin  (None, 63, 63, 32)       0         
 g2D)                                                            
                                                                 
 conv2d_14 (Conv2D)          (None, 60, 60, 64)        32832     
                                                                 
 max_pooling2d_14 (MaxPoolin  (None, 30, 30, 64)       0         
 g2D)                                                            
                                                                 
 conv2d_15 (Conv2D)          (None, 27, 27, 128)       131200    
                                                                 
 max_pooling2d_15 (MaxPoolin  (None, 13, 13, 128)      0         
 g2D)                                                            
                                                                 
 conv2d_16 (Conv2D)          (None, 10, 10, 256)       524544    
                                                                 
 max_pooling2d_16 (MaxPoolin  (None, 5, 5, 256)        0         
 g2D)                                                            
                                                                 
 flatten_3 (Flatten)         (None, 6400)              0         
                                                                 
 dense_4 (Dense)             (None, 1024)              6554624   
                                                                 
 dropout_2 (Dropout)         (None, 1024)              0         
                                                                 
 dense_5 (Dense)             (None, 1)                 1025      
                                                                 
=================================================================
Total params: 7,245,121
Trainable params: 7,245,121
Non-trainable params: 0
_________________________________________________________________

cnn.fit(x = training_set, validation_data=test_set, epochs = 30)
Epoch 1/30
13/13 [==============================] - 28s 2s/step - loss: 0.7879 - accuracy: 0.5000 - val_loss: 0.6890 - val_accuracy: 0.5000
…
